…
[INFO] Output directory: C:\Users\Dadan\mtw\Voice_recognition\mtb_ml_gen
[INFO] Starting ml-coretools model converter...
[INFO] Reading config JSON file...



[INFO] Loading Keras model from C:\Users\Dadan\mtw\Voice_recognition\pretrained_models\voice_model.h5 ...

[INFO] TensorFlow Keras version: 2.3.0-tf

[INFO] Model loaded successfully

[INFO] Model summary:



Model: "sequential"
_________________________________________________________________
Layer (type)                 Output Shape              Param #   
=================================================================
conv2d (Conv2D)              (None, 127, 122, 4)       40        
_________________________________________________________________
conv2d_1 (Conv2D)            (None, 125, 120, 4)       148       
_________________________________________________________________
max_pooling2d (MaxPooling2D) (None, 62, 60, 4)         0         
_________________________________________________________________
dropout (Dropout)            (None, 62, 60, 4)         0         
_________________________________________________________________
flatten (Flatten)            (None, 14880)             0         
_________________________________________________________________
dense (Dense)                (None, 4)                 59524     
_________________________________________________________________
dropout_1 (Dropout)          (None, 4)                 0         
_________________________________________________________________
dense_1 (Dense)              (None, 8)                 40        
=================================================================
Total params: 59,752
Trainable params: 59,752
Non-trainable params: 0
_________________________________________________________________



[INFO] Optimizing MTB-ML model...
[INFO] 	Replacing Sequential layers where necessary...

[INFO] Optimizing MTB-ML model...
[INFO] 	Removing Dropout layers where necessary...

[INFO] 	Folding any BatchNormalizations where possible to do so...
…
